…
        "outputId": "ce29fe5b-f43d-45c8-ba68-de9dcee6db34",
        "colab": {
          "base_uri": "https://localhost:8080/"
        }
      },
      "id": "V6IhsDQOXNT6",
      "execution_count": null,
      "outputs": [
        {
          "output_type": "stream",
          "name": "stdout",
          "text": [
            "Model: \"sequential_5\"\n",
            "_________________________________________________________________\n",
            " Layer (type)                Output Shape              Param #   \n",
            "=================================================================\n",
            " conv2d_196 (Conv2D)         (None, 148, 148, 32)      896       \n",
            "                                                                 \n",
            " max_pooling2d_16 (MaxPooli  (None, 74, 74, 32)        0         \n",
            " ng2D)                                                           \n",
            "                                                                 \n",
            " conv2d_197 (Conv2D)         (None, 72, 72, 64)        18496     \n",
            "                                                                 \n",
            " max_pooling2d_17 (MaxPooli  (None, 36, 36, 64)        0         \n",
            " ng2D)                                                           \n",
            "                                                                 \n",
            " conv2d_198 (Conv2D)         (None, 34, 34, 128)       73856     \n",
            "                                                                 \n",
            " max_pooling2d_18 (MaxPooli  (None, 17, 17, 128)       0         \n",
            " ng2D)                                                           \n",
            "                                                                 \n",
            " flatten_4 (Flatten)         (None, 36992)             0         \n",
            "                                                                 \n",
            " dense_15 (Dense)            (None, 128)               4735104   \n",
            "                                                                 \n",
            " dense_16 (Dense)            (None, 64)                8256      \n",
            "                                                                 \n",
            " dense_17 (Dense)            (None, 5)                 325       \n",
            "                                                                 \n",
            "=================================================================\n",
            "Total params: 4836933 (18.45 MB)\n",
            "Trainable params: 4836933 (18.45 MB)\n",
            "Non-trainable params: 0 (0.00 Byte)\n",
            "_________________________________________________________________\n"
…
